data.pth (torch, 12010 bytes, 6 tensors)

l1.weight f4 [8, 175]
0	0xbe3655e6	-0.17806205
1	0x3f4149a9	0.7550302
2	0x3e4fac32	0.20280531
3	0x3f473b1f	0.77824587
4	0x3e8ba404	0.27273571
5	0x3ec48721	0.38384345
6	0xbccee415	-0.025255242
7	0xbf2fd00e	-0.6867684
8	0x3f045e2c	0.51706195
9	0x3f071239	0.5276218
10	0x3ef666cb	0.481253
11	0xbe632072	-0.22180346
12	0xbf031da2	-0.5121709
13	0xbf81165f	-1.0084952
14	0x3f00e93d	0.50355893
15	0xbf129db5	-0.5727189
16	0x3e912e69	0.2835572
17	0xbe304afd	-0.17216106
18	0x3eb1e6a3	0.34746274
19	0x3f58eabd	0.8473318
20	0x3f401a77	0.7504038
21	0xbeb282c7	-0.348654
22	0x3f314a43	0.6925394
23	0xbdbf699f	-0.093463175
24	0xbf0bd850	-0.5462694
25	0xbda8af66	-0.082365796
26	0x3eb4e9b7	0.3533456
27	0xbf721e8b	-0.94577855
28	0x3f31f686	0.6951679
29	0x3f4c9435	0.79913646
30	0x3ef7d518	0.48404765
31	0xbe4e13a1	-0.20124675
32	0x3f57428f	0.84085935
33	0x3ea0bc31	0.3139358
34	0xbee1a1d4	-0.44068778
35	0x3e1fb6e5	0.15597112
36	0x3ee6123b	0.44935784
37	0xbeae54fc	-0.34049213
38	0x3f44feb6	0.7695116
39	0x3f25af8d	0.64720994
40	0xbf703220	-0.93826485
41	0xbe9143a7	-0.28371927
42	0xbe873666	-0.2640869
43	0xbdab092e	-0.0835136
44	0xbf0df6ce	-0.5545472
45	0xbf776a21	-0.96646315
46	0xbf02c0fd	-0.51075727
47	0x3e7fefd6	0.24993834
48	0xbca28636	-0.019839387
49	0x3ec6a64b	0.38798746
50	0x3e1a28f3	0.15054683
51	0x3d694caf	0.056957897
52	0xbe0223b5	-0.12708934
53	0x3f948b89	1.1605083
54	0x3f71188f	0.941781
55	0xbebfa94c	-0.3743385
56	0x3efb1ff4	0.49047816
57	0x3f27dbb9	0.65569645
58	0x3ea423ca	0.32058555
59	0xbe5c0df2	-0.21489695
60	0x3dc250c5	0.09488062
61	0x3ebc6670	0.36796904
62	0x3f426df9	0.75949055
63	0x3f3ab75c	0.72936034
64	0x3e5bb1e8	0.21454585
65	0xbea0417a	-0.31299955
66	0x3f45c561	0.772543
67	0x3eab163e	0.33415407
68	0x3e6e1ba9	0.23252739
69	0xbea41743	-0.32048997
70	0x3e189c66	0.14903411
71	0x3f41f78a	0.7576834
72	0x3e954f23	0.2916194
73	0x3f394b70	0.72380733
74	0x3f2f4ab0	0.6847334
75	0x3f1cc518	0.6123824
76	0x3c446ab7	0.011988333
77	0x3e3e81c8	0.18604195
78	0x3eeb5821	0.45965675
79	0xbf94aa06	-1.1614387
80	0x3e7f7356	0.24946341
81	0xbedf98a3	-0.4367114
82	0xbe5ffa3f	-0.21872805
83	0xbed00692	-0.40630013
84	0x3dea95cb	0.11454352
85	0x3ec27180	0.3797722
86	0x3e4fa6f3	0.2027853
87	0xbebb8143	-0.36622056
88	0x3e35cc69	0.17753758
89	0x3f03068c	0.51181865
90	0x3e9fe8d1	0.31232312
91	0xbedcda33	-0.43135223
92	0xbedf9ece	-0.43675846
93	0x3f632ba2	0.88738453
94	0x3e503869	0.20334019
95	0xbf5421ad	-0.82863885
96	0x3e9c41de	0.30519003
97	0xbdef2987	-0.116778426
98	0xbe99abbe	-0.3001384
99	0x3cdab154	0.026695885
100	0xbe17d0f8	-0.14825809
101	0x3ecdc715	0.4019095
102	0xbe159c20	-0.14610338
103	0xbd5ab030	-0.05339068
104	0x3eea2fe4	0.45739663
105	0x3ed74cb1	0.42050698
106	0xbf5705c1	-0.83993155
107	0xbe47cc52	-0.19511536
108	0x3f102442	0.56305325
109	0x3f01bb8a	0.50676787
110	0x3f6906f6	0.91026247
111	0xbf395f2b	-0.7241084
112	0xbe1bb90c	-0.15207309
113	0xbddff7e2	-0.10935952
114	0xbdd0799f	-0.101794474
115	0x3e9128d8	0.28351474
116	0xbf35651b	-0.708574
117	0xbe90386e	-0.28168052
118	0x3ecf44f2	0.4048229
119	0xbf2e2e44	-0.68039346
120	0xbda1cf56	-0.07900874
121	0x3f0f9fe6	0.5610336
122	0x3ee8f5e3	0.45500097
123	0x3f12a8a0	0.5728855
124	0x3ee93870	0.4555087
125	0x3f0da95b	0.5533654
126	0xbec5e389	-0.38650158
127	0xbe516160	-0.20447302
128	0x3f3bd4a4	0.7337134
129	0x3e7b84b6	0.24562344
130	0x3f0a1f8f	0.53954405
131	0xbf4c936d	-0.79912454
132	0xbc754781	-0.014970661
133	0xbf5fb6cf	-0.8738832
134	0x3edec943	0.43512926
135	0x3f7fc029	0.9990259
136	0x3e3f6b5a	0.18693295
137	0x3e89aa88	0.26887918
138	0x3e2fbe2e	0.17162392
139	0xbf301f03	-0.6879732
140	0xbe024d6a	-0.12724844
141	0xbead60c5	-0.33862892
142	0x3f6cc98c	0.92495036
143	0x3e6936d1	0.22774817
144	0xbeb5330a	-0.35390502
145	0x3e5d2091	0.21594454
146	0x3ee0dd03	0.4391862
147	0x3ea0487f	0.3130531
148	0x3f06ffb4	0.5273392
149	0x3e17c0ff	0.14819716
150	0x3e4a443b	0.1975259
151	0x3ee522ca	0.44753104
152	0xbe83a62e	-0.25712723
153	0x3f6f2f4e	0.93431556
154	0xbdf13d20	-0.11779237
155	0xbed261d0	-0.4109025
156	0x3f05747d	0.5213087
157	0xbd0052b9	-0.03132889
158	0x3e823191	0.2542844
159	0xbf3bf559	-0.73421246
160	0x3ee2f003	0.4432374
161	0x3e796cd1	0.24357916
162	0xbebe8d7b	-0.37217316
163	0x3f2e2e24	0.68039155
164	0xbeb263d9	-0.34841803
165	0x3f1f7594	0.62288785
166	0xbe34811b	-0.17627375
167	0x3e8b3ca3	0.271947
168	0x3ef85136	0.4849946
169	0x3e989e87	0.29808447
170	0xbe0a8fc0	-0.13531399
171	0x3e2a4611	0.1662829
172	0x3ec3a2a0	0.3821001
173	0x3e904f13	0.2818533
174	0x3dd6d257	0.10489338
175	0xbe585ec4	-0.211299
176	0xbdef6fa5	-0.116912164
177	0xbe11ce6b	-0.14238898
178	0x3eabe619	0.33573988
179	0x3f15e366	0.5855011
180	0x3eaff023	0.34362897
181	0xbe8e4048	-0.27783418
182	0x3f28daa6	0.6595863
183	0xbe3ad537	-0.18245398
184	0x3f010610	0.50399876
185	0xbeacaa2b	-0.33723578
186	0x3de6e8ab	0.11274847
187	0x3e08342b	0.1330115
188	0x3f570352	0.8398944
189	0x3e9b8f4d	0.30382767
190	0xbec11147	-0.37708494
191	0xbea4773c	-0.3212222
192	0xbdb6a476	-0.08918087
193	0xbecc4b26	-0.39901084
194	0x3f9980b6	1.1992404
195	0x3fa8dc33	1.31922
196	0x3fa5ee7b	1.2963403
197	0xbeaf932f	-0.3429198
198	0x3ee26862	0.44220263
199	0x3f9d73a6	1.2300918
200	0xbd79cf16	-0.06098851
201	0x3f4035cb	0.7508208
202	0xbf928f6c	-1.1450019
203	0xbeb3d374	-0.35122263
204	0xbf1a1f9c	-0.6020448
205	0xbce9a1eb	-0.028519591
206	0x3f003e1d	0.5009478
207	0x3f6e3aa1	0.9305821
208	0x3da3b7e0	0.07994056
209	0x3ed47c4c	0.4150108
210	0x3f562831	0.8365508
211	0xbe40e61b	-0.18837778
212	0x3f89eb4b	1.0774931
213	0xbef35627	-0.47526667
214	0xbeff4221	-0.4985514
215	0xbe6fe7da	-0.23428288
216	0x3f0ea9e1	0.55727965
217	0x3e5c5538	0.21516883
218	0xbf349034	-0.70532537
219	0xbf180e99	-0.59397274
220	0x3f347d94	0.70504117
221	0x3f6b14cb	0.918286
222	0x3e1657ba	0.14681903
223	0x3e3c6fc3	0.18402009
224	0xbe002b95	-0.12516625
225	0xbed810c6	-0.42200297
226	0x3f6224ab	0.883372
227	0xbe2a0126	-0.16602
228	0xbca92b27	-0.02065046
229	0xbf495d3f	-0.7865791
230	0x3f286af2	0.65788186
231	0x3e55e66f	0.20888685
232	0x3f992a9c	1.1966128
233	0xbf025a23	-0.5091879
234	0x3e5b899d	0.21439214
235	0x3f39df4c	0.7260635
236	0xbe1e200e	-0.15441915
237	0xbeafb316	-0.3431632
238	0xbeaec842	-0.3413716
239	0x3d432243	0.047640096
240	0x3f1c571a	0.61070406
241	0xbeae0377	-0.33987018
242	0xbe2d54ee	-0.1692693
243	0x3e7c7c5d	0.24656816
244	0x3d6feed3	0.05857737
245	0xbed7ac50	-0.42123652
246	0xbeae5127	-0.3404629
247	0x3e9f652d	0.31131878
248	0xbeaf40b1	-0.34229043
249	0xbeaf9a0d	-0.3429722
250	0x3f6f9cc5	0.93598586
251	0x3eb2919d	0.3487672
252	0x3ef459f3	0.47724876
253	0xbf0569f9	-0.52114826
254	0xbf51fa5c	-0.82022643
255	0x3f2b1629	0.6683069

l1.bias f4 [8]
0	0x3f49c5b8	0.7881732
1	0x3eac3281	0.3363228
2	0x3f40d655	0.75327045
3	0x3f01b425	0.50665504
4	0x3f2ba2bb	0.6704518
5	0x3fc30785	1.523667
6	0x3f17e446	0.5933269
7	0x3f40446a	0.7510439

l2.weight f4 [8, 8]
0	0x3f6081cc	0.87698054
1	0xbfb72609	-1.4308482
2	0xbe206ed3	-0.15667276
3	0xbfb44165	-1.4082457
4	0x3f158ec0	0.58420944
5	0x3fba854c	1.4571929
6	0x3f0e3cb0	0.5556135
7	0x3f2bcd9f	0.6711063
8	0xbf3ca590	-0.7369013
9	0xbeec6075	-0.4616734
10	0x3fbdbf08	1.4823923
11	0x3f1173a7	0.56817096
12	0x3e1a5fa6	0.1507555
13	0x3fa6e3bc	1.3038249
14	0xbfe4ef0f	-1.7885455
15	0x3bc202f6	0.005920763
16	0xbf0fbf25	-0.5615104
17	0xbd7d3d5d	-0.0618261
18	0x3da4385c	0.08018562
19	0xbf69d35d	-0.9133814
20	0x40071081	2.1103823
21	0x3f62e7a5	0.8863471
22	0x3e181f01	0.14855577
23	0x4000bf15	2.0116627
24	0x3ee5548c	0.44791067
25	0xbea8031c	-0.32814872
26	0x3f6b515f	0.9192104
27	0xbcf80df9	-0.0302801
28	0xbf3c6ad3	-0.736005
29	0x3feababb	1.8338236
30	0x3f53953a	0.82649577
31	0xbff02493	-1.8761162
32	0x4000ec60	2.0144272
33	0x3e2813a7	0.16413747
34	0xbedc19ea	-0.4298852
35	0x4015a411	2.3381388
36	0xbf11c75f	-0.5694484
37	0xbd1b2b60	-0.037883162
38	0x40008ff3	2.008786
39	0x3f63e98e	0.8902825
40	0x4019be5b	2.4022434
41	0xbf5f9f1b	-0.8735215
42	0x400b7a4f	2.1793401
43	0x3d91203b	0.070862256
44	0x3f46e744	0.77696633
45	0xbf128ee1	-0.57249266
46	0x3fbf64d6	1.4952648
47	0x3f0516e4	0.51988053
48	0xbf0bebef	-0.5465688
49	0x3ff6e173	1.9287552
50	0x3fb8c370	1.4434643
51	0xbed1eba5	-0.41000095
52	0xbf0479ed	-0.51748544
53	0x3f2f0564	0.683676
54	0x3ea724ab	0.32645163
55	0x3d9206dd	0.07130215
56	0x3f655c29	0.8959375
57	0x3fda946c	1.7076545
58	0x3e17233e	0.14759538
59	0xbec3c9f4	-0.38240016
60	0xbfc012b8	-1.5005713
61	0x3f3594ec	0.7093036
62	0x3e94860e	0.29008526
63	0x3ed91da9	0.4240544

l2.bias f4 [8]
0	0x3f96b3c3	1.1773609
1	0x3f8715ed	1.0553566
2	0x3e5510dd	0.20807214
3	0x3f242574	0.6411965
4	0x3f26625d	0.6499384
5	0x3e82adfd	0.25523368
6	0x3e35d23c	0.1775598
7	0xbe80ec1b	-0.25180134

l3.weight f4 [26, 8]
0	0xbfdc2a98	-1.7200499
1	0xc01ec372	-2.480679
2	0x3e61b190	0.22040391
3	0xc02922ea	-2.642756
4	0x3ef27314	0.47353423
5	0xbdf164d7	-0.11786812
6	0x3e55f4d8	0.20894182
7	0x3eaa3470	0.33243132
8	0x3f82a81a	1.020755
9	0xbdbcef43	-0.09225323
10	0x3f893a51	1.0720922
11	0xbfff6471	-1.9952527
12	0xbf8410f7	-1.0317677
13	0xbf22b355	-0.6355489
14	0xbf66d391	-0.90166575
15	0xc0027380	-2.0382996
16	0xbf05379e	-0.5203799
17	0xc026279a	-2.596167
18	0x3d9418f3	0.07231321
19	0xbfab6cdc	-1.3392596
20	0x3f1ea29a	0.6196686
21	0x3f4fc3a9	0.8115793
22	0xbfa2c3f3	-1.2716049
23	0xbff98196	-1.9492671
24	0x3e7287d3	0.23684625
25	0xbf99de6e	-1.2021005
26	0x3d3f158e	0.046651416
27	0xc00aa923	-2.1665733
28	0xbcda7929	-0.026669102
29	0x3ecba7c5	0.39776435
30	0x3ed44290	0.41457033
31	0xbf0af8cb	-0.5428588
32	0x3e8df6f2	0.27727467
33	0xbff2ca10	-1.8967915
34	0xbf9d8e0d	-1.2308975
35	0x3f0b6d09	0.5446325
36	0x3edfd785	0.43719116
37	0x3e730443	0.23732094
38	0xbfae6137	-1.3623418
39	0xbebb6217	-0.36598274
40	0xbf9e1725	-1.2350813
41	0xbfb18140	-1.3867569
42	0xc0081c92	-2.1267438
43	0xbf8b82b2	-1.089926
44	0x3f894950	1.0725498
45	0x3f28e565	0.6597503
46	0xbfd19943	-1.6374897
47	0xbf4ae14c	-0.79250026
48	0xbef42d87	-0.47690985
49	0x3f17430e	0.5908669
50	0x3f0bcd89	0.54610497
51	0xc0067606	-2.1009536
52	0xbf047e5f	-0.51755327
53	0x3efea4e2	0.4973517
54	0xbf0cea1d	-0.5504473
55	0xc0276ecf	-2.6161382
56	0x3e0e8a1b	0.1391987
57	0x3ee70ed6	0.45128506
58	0x3f04d089	0.518807
59	0xbef7b427	-0.48379633
60	0xc017eb2e	-2.3737292
61	0x3e3b5d16	0.18297228
62	0x3c2f0d28	0.010684289
63	0xbf98723f	-1.1909865
64	0xbea4844f	-0.32132193
65	0x3e99c2d9	0.3003147
66	0xbf579c68	-0.8422303
67	0x3ee45bfe	0.44601434
68	0xbed7ed7f	-0.42173383
69	0x3f1a19e3	0.6019575
70	0xbc682bb0	-0.014170572
71	0xc030a4cd	-2.7600586
72	0x3deb2af3	0.11482801
73	0xbfef12f7	-1.8677663
74	0xbe935ec5	-0.2878324
75	0xbeb5e8d2	-0.3552919
76	0x3d02cdec	0.031934664
77	0xbec982ef	-0.39357707
78	0x3e84c27a	0.25929624
79	0x3ea92880	0.33038712
80	0x3f7f532e	0.997363
81	0xbe0930a7	-0.13397466
82	0x3e40ac6b	0.18815772
83	0xc010e8c0	-2.264206
84	0x3ef8770a	0.4852832
85	0x3e703e23	0.23461203
86	0xc031c410	-2.7775917
87	0xc02c204e	-2.6894717
88	0x3f9af898	1.2107115
89	0xbf57a8db	-0.8424203
90	0xbd6bf39e	-0.05760538
91	0x3e2d059b	0.1689667
92	0xbf2572b7	-0.64628166
93	0x3ea27873	0.3173252
94	0xbef4f923	-0.47846326
95	0xbf89c0cc	-1.0761962
96	0xbe5a5c1b	-0.21324198
97	0x3e81abf6	0.25326508
98	0xbe1beef4	-0.15227872
99	0x3e896a17	0.26838753
100	0xbe8c9e97	-0.27464744
101	0xbf98d71d	-1.1940647
102	0x3e851d6a	0.25999004
103	0xbb662111	-0.0035114924
104	0xbe9de165	-0.30836025
105	0x3db0b733	0.086286925
106	0xbe03dcc4	-0.12877184
107	0x3eba1077	0.36340687
108	0xbfba9940	-1.4578018
109	0xc02be48e	-2.6858249
110	0x3f066ac7	0.5250668
111	0x3e601a4e	0.21885034
112	0xbee887cf	-0.45416114
113	0xbcad5587	-0.021158947
114	0xbfc200b1	-1.5156461
115	0x3d4dfe25	0.0502912
116	0xbfb59d14	-1.4188561
117	0x3edc0ab8	0.42976928
118	0x3ee3fcde	0.4452886
119	0x3eaa3f3b	0.33251366
120	0x3f0b3a30	0.5438566
121	0x3f531dac	0.8246715
122	0xbf92526a	-1.1431401
123	0x3f0853b0	0.53252697
124	0xc0114550	-2.2698555
125	0xbcfd0c0b	-0.030889532
126	0x3e3d5704	0.18490225
127	0xbf3acec8	-0.72971773
128	0x3e245213	0.16046934
129	0xbc3db6c6	-0.011579221
130	0x3f47e019	0.7807632
131	0xbfec55b5	-1.8463656
132	0xbf82c9af	-1.0217799
133	0xbfbbe1b1	-1.467825
134	0x3da4ab5f	0.08040499
135	0x3eae1318	0.33998942
136	0x3f76ca43	0.96402377
137	0x3f2fa989	0.68618065
138	0x3df18656	0.11793201
139	0x3f5079ad	0.8143566
140	0xbf84ee6b	-1.0385259
141	0xbfa59625	-1.2936445
142	0xbf2d5488	-0.6770711
143	0xc029df5a	-2.6542573
144	0xbffc4f99	-1.9711791
145	0x3e929c80	0.28635025
146	0x3dfb67bd	0.12275646
147	0xbee5fcab	-0.44919333
148	0xbfb60bea	-1.4222386
149	0x3ecea389	0.40359142
150	0x3f1dde41	0.6166726
151	0xbf1b850f	-0.60749906
152	0xc00937bb	-2.1440265
153	0xbfcc8ef8	-1.5981131
154	0xbf96a7e7	-1.176999
155	0xbf5d205b	-0.86377496
156	0x3f00298b	0.5006339
157	0x3ea65fca	0.32494956
158	0x3d11c213	0.035585474
159	0x3ee36ac1	0.44417384
160	0xbf85471b	-1.0412325
161	0xbec91e1e	-0.3928079
162	0xc01109db	-2.2662265
163	0x3e22cd52	0.15898636
164	0x3f36d1e6	0.7141403
165	0xbfcc735a	-1.5972703
166	0x3f05dacf	0.52287
167	0xbd01144a	-0.03151349
168	0xbfc82eef	-1.5639323
169	0x3ee2b1da	0.44276315
170	0xbec38f39	-0.38195208
171	0xbfd20939	-1.6409065
172	0x3f352f0a	0.707749
173	0xbe32bb0a	-0.17454162
174	0x3e84bd84	0.2592584
175	0xbfc426f4	-1.5324388
176	0xbfac67fb	-1.3469232
177	0x3f22cbf6	0.6359247
178	0xc037b8d2	-2.8706555
179	0x3e10f7ce	0.1415703
180	0x3ec2fb18	0.38082194
181	0x3f05ba92	0.5223781
182	0xbf390a46	-0.722813
183	0xbfa7424b	-1.3067106
184	0xbf94dbaa	-1.1629536
185	0x3cd72401	0.026262285
186	0xbe85be88	-0.26121926
187	0xc004d691	-2.075596
188	0x3e9ea324	0.3098384
189	0xbff7c4b0	-1.9356899
190	0x3f032d96	0.51241434
191	0x3ef1ab81	0.4720116
192	0xbf2f6642	-0.6851541
193	0xbf628a91	-0.88492686
194	0xc01f747c	-2.4914846
195	0x3f48d723	0.7845327
196	0xbd67ceb3	-0.056593608
197	0x3e2fce28	0.17168486
198	0x3e9643fb	0.2934874
199	0xbebc86c1	-0.3682156
200	0x3e9391bf	0.28822133
201	0x3eb519c5	0.35371223
202	0xbf6ef3eb	-0.9334094
203	0x3f13114c	0.5744827
204	0x3f39c2e4	0.72563004
205	0xbf8fd3a3	-1.1236461
206	0xbf4dac89	-0.8034139
207	0xbf75ec88	-0.96064043

l3.bias f4 [26]
0	0x3da57023	0.08078029
1	0xbe3b96cb	-0.18319242
2	0xbda364e1	-0.079782255
3	0xbea5230e	-0.32253307
4	0x3d8cd3c6	0.0687633
5	0x3e18b243	0.14911751
6	0xbeeb896f	-0.4600329
7	0xbf197f96	-0.59960306
8	0xbe588a20	-0.2114644
9	0xbf1a5477	-0.60285133
10	0x3f477ff7	0.77929634
11	0xbd8830cd	-0.06649933
12	0xbe08d6e0	-0.13363218
13	0xbe6d0aaf	-0.23148607
14	0xbf26d0b3	-0.651622
15	0xbdbedefb	-0.09319874
16	0x3e93e85b	0.2888821
17	0x3ed9daa0	0.4254961
18	0xbe68bf33	-0.22729187
19	0x3ea8a9e9	0.3294213
20	0x3d89b9ba	0.06724878
21	0x3ed8e6e0	0.42363644
22	0xbdf43502	-0.11924173
23	0x3e4fd270	0.2029512
24	0xbe94898e	-0.29011196
25	0x3e90df82	0.28295523
